data.pth (torch, 14103 bytes, 6 tensors)

l1.weight f4 [8, 216]
0	0x3f2e5fe9	0.681151
1	0xbf43a27e	-0.7641982
2	0xbeb29930	-0.34882498
3	0xbed63d7d	-0.41843787
4	0xbf8ceaa8	-1.1009111
5	0xbf438e0e	-0.76388633
6	0x3e0208a0	0.12698603
7	0x3e8f95af	0.28043887
8	0x3f289601	0.6585389
9	0x3f813602	1.0094607
10	0xbf17b296	-0.59256876
11	0xbe3a1330	-0.18171382
12	0x3dd2c09b	0.10290643
13	0xbf307ebf	-0.689434
14	0x3eeedb5f	0.46651742
15	0x3f78f712	0.97252
16	0xbf71aba0	-0.94402504
17	0xbdb81a9f	-0.089894526
18	0x3e0abe86	0.13549241
19	0x3f0a6fe8	0.54077005
20	0x3eacdf44	0.33764088
21	0x3fca5938	1.5808477
22	0x4003a348	2.056841
23	0x3f3248fe	0.6964263
24	0x3e4da44e	0.20082209
25	0xbfaff864	-1.3747678
26	0xbe3addde	-0.18248698
27	0x3ed6f9f3	0.4198757
28	0x3d2aafbe	0.041671507
29	0x3dc362d0	0.09540331
30	0x3fa42cb3	1.2826141
31	0x3fa635d7	1.2985181
32	0x3c6a176d	0.014287812
33	0x3f9fcab7	1.2483739
34	0x3da51966	0.08061485
35	0xbeaf7af1	-0.34273484
36	0x3d9a15d6	0.07523696
37	0xbe5d72e2	-0.21625856
38	0x3f49fc35	0.7890046
39	0xbec1a7e2	-0.37823397
40	0xbf8ebfa3	-1.1152233
41	0x3edfaf24	0.4368831
42	0xbebe769b	-0.37199864
43	0x3ec59415	0.3858954
44	0x3e267c7c	0.16258425
45	0x40514a0a	3.270144
46	0xbdf8d19e	-0.12149356
47	0x3ee2ad39	0.44272783
48	0xbd679992	-0.05654294
49	0x3dc9bcc1	0.09850455
50	0xbf659287	-0.8967671
51	0xbeb4f875	-0.35345808
52	0xbf3db6d8	-0.7410712
53	0x3f2a1c2e	0.6644925
54	0x3f018075	0.50586635
55	0xbeb76cde	-0.35825247
56	0x3f5873d8	0.84551764
57	0x3e9d3504	0.3070451
58	0x3d2058d1	0.039147202
59	0xbe46f919	-0.1943096
60	0x3edf9073	0.43664894
61	0x3ee3520d	0.44398537
62	0xbe9813ae	-0.29702514
63	0x3f9da7fd	1.2316891
64	0x3fd2ae1b	1.6459383
65	0x3f8f3fb7	1.1191319
66	0x3faadcbe	1.3348615
67	0xbea3e541	-0.32010844
68	0x3f9a9ec4	1.2079701
69	0xbed91a98	-0.42403102
70	0x3fb7652f	1.4327754
71	0x3eb084de	0.3447637
72	0xbe9a5a81	-0.30147174
73	0x3f07273a	0.5279423
74	0x400824e2	2.1272511
75	0x3e9939b9	0.2992685
76	0xbe558574	-0.2085169
77	0x3df4122a	0.11917527
78	0x3f64898c	0.8927238
79	0x3f3ca1eb	0.7368457
80	0x3f602066	0.87549436
81	0x3f6af4ca	0.9177977
82	0xbef66b8b	-0.48128924
83	0x3f6fadba	0.9362446
84	0x3e620e0d	0.22075672
85	0xbe9fa637	-0.311815
86	0x3f1bb4c2	0.6082269
87	0xbe974f01	-0.29552463
88	0x3e4ecbbe	0.20194909
89	0x3ffbd48d	1.967424
90	0xbdd8495f	-0.105608694
91	0x3d73a233	0.059480857
92	0xbf935fa3	-1.1513561
93	0xbd94a087	-0.07257181
94	0x3e171531	0.14754178
95	0xbec093c6	-0.37612742
96	0xbe8521cd	-0.2600235
97	0x3c12b492	0.008954184
98	0x3fac37b1	1.3454496
99	0xbebdaf9f	-0.3704805
100	0x3f01c199	0.5068603
101	0x3df05d96	0.117366
102	0x3ed3e1df	0.41383263
103	0xbdc37c36	-0.09545176
104	0x3de15902	0.11003305
105	0x3e57bcd7	0.2106813
106	0xbf77b84c	-0.9676559
107	0xbe30c672	-0.17263201
108	0xbbfc1230	-0.007692598
109	0x3e8efd77	0.27927753
110	0xbd72d6d7	-0.05928692
111	0x3d23062f	0.03980082
112	0xbe226eed	-0.15862627
113	0x3eca7e1c	0.3954934
114	0xbe43edbc	-0.19133657
115	0x3d09ac36	0.0336115
116	0x3d6c2c5f	0.057659503
117	0x3f4935de	0.7859782
118	0x3f8f04ff	1.11734
119	0x3ede5d64	0.43430626
120	0x3cbfaf51	0.023399027
121	0xbed254f0	-0.41080427
122	0xbe90ea07	-0.2830355
123	0xbe5c4317	-0.21509968
124	0x3e407132	0.1879318
125	0x3de4e8fb	0.1117725
126	0x3fc49a57	1.5359601
127	0xbd21fb23	-0.039546143
128	0xbd2f1ff6	-0.04275509
129	0xbd2a9afe	-0.04165172
130	0xbf5e4e23	-0.8683798
131	0x3fa8f585	1.3199927
132	0x3f9ceff9	1.2260734
133	0xbebd65ec	-0.36991823
134	0xbef02f59	-0.46911123
135	0xbe04c013	-0.12963895
136	0x3f9f3c94	1.2440362
137	0x3ee9392e	0.45551437
138	0xbf8fee03	-1.124451
139	0x3f1362b3	0.5757248
140	0xbee026ab	-0.437795
141	0x3e54ac2b	0.20768802
142	0x3fe44f29	1.7836658
143	0xbc24fe0f	-0.010070338
144	0xbea127bc	-0.31475627
145	0xbf323a9b	-0.69620675
146	0xbf9c3360	-1.2203178
147	0x3eaac271	0.33351472
148	0x3fc9f155	1.5776774
149	0x3fa1cb4f	1.264017
150	0xbf181e2f	-0.59421057
151	0xbdb77865	-0.0895851
152	0x3d0c2049	0.034210477
153	0x3e291bb1	0.1651447
154	0x3f3fc55d	0.7491053
155	0x3efa036b	0.48830733
156	0xbdad7f01	-0.0847149
157	0xbf31ae29	-0.6940637
158	0x3f2b56cf	0.66929334
159	0xbe67ef82	-0.22649959
160	0x3fad7e6c	1.3554206
161	0xbe506726	-0.20351848
162	0x3ed05800	0.4069214
163	0xbf17e023	-0.5932638
164	0x3f29011f	0.66017336
165	0xbf895288	-1.0728312
166	0xbea95b40	-0.3307743
167	0xbe5dc7d7	-0.21658264
168	0xbf12c8fa	-0.57337916
169	0xbd6c23c9	-0.057651315
170	0xbe76ce55	-0.24102147
171	0xbf62d54f	-0.88606733
172	0x3e23506e	0.1594865
173	0xbe9e8b13	-0.3096548
174	0xbf3c8ea3	-0.73655146
175	0x3f837839	1.0271064
176	0xbe0bac96	-0.13640055
177	0xbf452ea4	-0.7702429
178	0xbfb811c3	-1.438042
179	0x3f6134fa	0.8797146
180	0x40022081	2.033234
181	0x3f3cfca5	0.73823005
182	0x3e7de01c	0.24792522
183	0x3f885c52	1.0653174
184	0x3f5df81d	0.86706716
185	0xbf539cba	-0.8266102
186	0x3e2cc2d9	0.16871203
187	0x3e18c387	0.14918338
188	0xbf28e016	-0.6596693
189	0x3eb9ce4b	0.36290202
190	0x3f17ed92	0.5934688
191	0xbe874f31	-0.26427606
192	0x3fc5bba4	1.5447888
193	0xbf2702a9	-0.65238434
194	0xbe4d1c0b	-0.20030229
195	0xbc572b9c	-0.013132956
196	0xbe5e1891	-0.21689059
197	0xbf55c246	-0.8349956
198	0xbd78b6b3	-0.06072111
199	0x3fee1c63	1.8602413
200	0xbe443142	-0.19159415
201	0x3eb3e133	0.3513275
202	0xbf6b86ad	-0.92002374
203	0x3f0a2882	0.5396806
204	0xbd11d130	-0.035599887
205	0xbe44644e	-0.19178888
206	0x3fb09dd4	1.3798165
207	0xbee25043	-0.4420186
208	0xbf57c22f	-0.84280676
209	0xbe32a75e	-0.17446658
210	0xbed7b372	-0.42129093
211	0x3ec7b81e	0.39007658
212	0xbf55d129	-0.8352228
213	0xbf560592	-0.8360225
214	0x3c951d1b	0.018202355
215	0x3b8b2894	0.0042467806
216	0xbec571b5	-0.38563314
217	0x3dd4b4e3	0.10386064
218	0x3c527b80	0.0128468275
219	0xbe9308aa	-0.28717548
220	0x3f1e2a7b	0.6178357
221	0x3f80a583	1.005051
222	0x3e89c67e	0.2690925
223	0x3ed514a4	0.4161731
224	0xbed3849e	-0.41312116
225	0x3f23ac3b	0.6393468
226	0xbf1feece	-0.6247376
227	0x3debd9c4	0.11516145
228	0x3e997d30	0.29978323
229	0x3fcc267e	1.5949247
230	0x3d131ac8	0.035914212
231	0x3f4fa516	0.81111276
232	0x3febbdc6	1.8417289
233	0x3e984a95	0.29744402
234	0xbf0457fb	-0.5169675
235	0x3f43e977	0.76528114
236	0xbe931fb1	-0.28735116
237	0x3f85b6a0	1.0446358
238	0x3fb47676	1.4098651
239	0x3d88eda6	0.06685953
240	0x3dc25eff	0.09490775
241	0xbe438ac6	-0.19095907
242	0x3f14f969	0.5819307
243	0x3ee4f354	0.44716895
244	0x3f390772	0.72276986
245	0x3f32eec2	0.69895566
246	0xbfa4cf8d	-1.287584
247	0x3f0c4f0a	0.54808104
248	0xbd562abc	-0.05228685
249	0xbf4758a1	-0.7786961
250	0x3f8eab71	1.114607
251	0x3e36ba75	0.17844565
252	0x3f160688	0.58603716
253	0x3df4a3c3	0.119452976
254	0xbe0cb17f	-0.13739584
255	0xbef6e576	-0.4822194

l1.bias f4 [8]
0	0x3f12c800	0.57336426
1	0x3f45fb7d	0.77336866
2	0x3f6eb3b3	0.9324295
3	0x3f85ae03	1.0443729
4	0x3f883925	1.0642439
5	0x3ed8aac6	0.4231779
6	0x3f2383a1	0.63872725
7	0x3fc78455	1.558726

l2.weight f4 [8, 8]
0	0xbf9f6e96	-1.2455623
1	0x3fac4fbb	1.3461832
2	0xc0075f00	-2.1151733
3	0xbf48424e	-0.7822617
4	0xbe4287a5	-0.18997057
5	0x3faf6169	1.3701602
6	0x3fb3db2b	1.405126
7	0x3fd6d986	1.6785133
8	0xbf9a4679	-1.2052757
9	0xbe887f49	-0.2665961
10	0xbf9d835a	-1.230571
11	0x3ff13d7a	1.8846886
12	0x3f38cdd9	0.721891
13	0xbe935605	-0.28776565
14	0x4037f5ab	2.8743694
15	0x3f8bdd79	1.0926963
16	0x40037334	2.0539064
17	0x3fec2449	1.8448573
18	0xbf54588b	-0.82947606
19	0xbe8fc840	-0.28082466
20	0xbfcc82e2	-1.5977442
21	0x3f26a671	0.6509772
22	0x4033e695	2.8109486
23	0x3fef1154	1.8677163
24	0xc003d977	-2.060148
25	0x404b2b9d	3.174537
26	0xbe16335e	-0.14668033
27	0xbd2a319c	-0.041551217
28	0x3f99dd5c	1.2020679
29	0xbfa95b46	-1.323098
30	0x40374138	2.8633556
31	0x3fb18fc2	1.3871996
32	0x3fd18368	1.6368227
33	0x402cc2e3	2.699395
34	0x3fdd3e1c	1.7284579
35	0xbe7d2637	-0.24721609
36	0x401680f0	2.3516197
37	0x40367f7f	2.8515317
38	0x4007c768	2.1215458
39	0xbf6d3e60	-0.926733
40	0xbeb1e180	-0.34742355
41	0x4045ae2c	3.0887556
42	0x3ffd4084	1.9785314
43	0x403f781f	2.9917066
44	0xbf9792ec	-1.1841712
45	0xbe903a82	-0.28169638
46	0xbf67fc6f	-0.9061956
47	0x3ec59db9	0.38596895
48	0xbec62642	-0.38701063
49	0xbf55dc07	-0.8353886
50	0x3f1d675c	0.6148584
51	0x3f1a7b42	0.60344326
52	0x3f8a0d1c	1.0785251
53	0xbfa46e80	-1.2846222
54	0xc0095bb9	-2.1462233
55	0x3fdf4966	1.7444274
56	0x3dd4b035	0.10385171
57	0xbfd99594	-1.6998773
58	0x40141282	2.3136296
59	0xbfbabc07	-1.4588631
60	0x3f95982b	1.1687063
61	0xbf6f1f34	-0.9340699
62	0x3f7852de	0.97001445
63	0x3fd1a41a	1.6378205

l2.bias f4 [8]
0	0x3e351b20	0.17686129
1	0x3f1f17e4	0.6214583
2	0x3ec43f81	0.383297
3	0x3d4e8aca	0.05042533
4	0xbda54950	-0.08070624
5	0x3f98909f	1.1919135
6	0x3fcd815b	1.6055101
7	0x3f2e0162	0.6797086

l3.weight f4 [40, 8]
0	0xbe3831d5	-0.1798776
1	0xbd8a8518	-0.06763667
2	0x3d8fbb8d	0.07018194
3	0xbde618ff	-0.112352364
4	0xc003b18d	-2.0577118
5	0x3e7673ef	0.24067663
6	0x3f2bbece	0.6708802
7	0xbfba5f0c	-1.4560256
8	0xbfb8fb3e	-1.4451673
9	0xbf45ea26	-0.7731041
10	0xbeaf747f	-0.34268567
11	0xc0af8059	-5.4844174
12	0x3f099cf1	0.537551
13	0xbfc967db	-1.5734819
14	0x3df3aae8	0.11897832
15	0x3f09932a	0.5374018
16	0x3f4f1e42	0.80905545
17	0xbe23fc34	-0.16014177
18	0x3f214e83	0.63010424
19	0x3c1c2511	0.009530322
20	0xc0913c08	-4.538578
21	0xbf80d845	-1.0066
22	0x3dcc9047	0.09988456
23	0x3f1bd94b	0.6087844
24	0xbf221b4a	-0.6332289
25	0x3e813c43	0.2524129
26	0x3f0f745a	0.56036913
27	0x3e898d9b	0.2686585
28	0xbfec2b6d	-1.8450752
29	0x3e8bf193	0.27332744
30	0xc060185b	-3.5014865
31	0xc057eac9	-3.3737051
32	0xc09280c8	-4.5782204
33	0x3f04e5c9	0.51913124
34	0xbf05176b	-0.5198886
35	0xc0651f9b	-3.580054
36	0x3f0ac2a3	0.5420324
37	0xbe1b931b	-0.15192835
38	0x3e87efd1	0.26550153
39	0xc04a8864	-3.1645746
40	0x3ec1ce3f	0.37852666
41	0x3f1edefe	0.6205901
42	0xbf93b68b	-1.1540083
43	0x3f0402b5	0.5156663
44	0xbfc1c4e2	-1.5138209
45	0xc01c7d3b	-2.4451435
46	0x3f3a6849	0.72815377
47	0xbc129140	-0.008945763
48	0xc07ebbfc	-3.9802237
49	0xbfb5390c	-1.4158034
50	0xc0019a08	-2.0250263
51	0xc0397e07	-2.898317
52	0x3f645dd5	0.89205676
53	0x3f206537	0.6265444
54	0xc01a7e51	-2.4139597
55	0xbf21a786	-0.63146245
56	0xbfc036be	-1.5016706
57	0xbecad199	-0.39613035
58	0xbf17d8b8	-0.5931506
59	0xbf72b1c7	-0.94802517
60	0x3efaa678	0.4895513
61	0xbfb89968	-1.4421816
62	0x3ee2445d	0.44192782
63	0x3ed02a29	0.40657166
64	0xc0b45e80	-5.6365356
65	0x3e8ca7fb	0.2747191
66	0xc00a1d9e	-2.1580577
67	0x3e6f1e23	0.2335134
68	0xbd11389e	-0.035454385
69	0x3ed7310d	0.4202961
70	0xbf55892f	-0.8341245
71	0xbf96b423	-1.1773723
72	0x3eafd3dd	0.34341326
73	0xbfb1c5ee	-1.3888528
74	0x3df29c10	0.11846173
75	0xbe4bc50a	-0.19899383
76	0xbfd09de7	-1.6298188
77	0xbe6e3d3a	-0.23265544
78	0x3f1d922d	0.6155117
79	0x3f41c3b0	0.7568922
80	0xc01cb7cf	-2.4487188
81	0x3e9337d4	0.2875353
82	0xc015e613	-2.3421676
83	0xc070e42d	-3.7639267
84	0xbfc48c9e	-1.5355413
85	0x3f900a99	1.1253234
86	0x3f40348a	0.7508017
87	0x3f08a87e	0.533821
88	0x3f6438ff	0.8914947
89	0x3f7492ca	0.9553648
90	0x3edae0fb	0.4274977
91	0xbfc87d4f	-1.5663241
92	0xbeb899e1	-0.360549
93	0xc053f334	-3.311719
94	0xc03bec86	-2.9363112
95	0xbfc860e8	-1.5654573
96	0x3f973e43	1.1815876
97	0xbf3bcb91	-0.7335749
98	0x3ed5839d	0.41701975
99	0xbf9bb211	-1.2163717
100	0xbf7c9e4c	-0.9867904
101	0xc017da41	-2.3726962
102	0x3f1dbe6c	0.61618686
103	0x3d54c4dd	0.051945556
104	0xc0531abe	-3.2985072
105	0xc03e96a6	-2.9779449
106	0x3d00e389	0.031466994
107	0xc04f08f9	-3.2349226
108	0x3eeb02cb	0.45900568
109	0x3f87cd4d	1.0609528
110	0xc024f3f0	-2.5773888
111	0xc038162b	-2.876353
112	0xbe328334	-0.17432863
113	0x3ea64a21	0.3247843
114	0x3e1b6b35	0.15177615
115	0xbf48d5bf	-0.7845115
116	0x3eae7d61	0.34080032
117	0xbfa53839	-1.2907783
118	0xc07f8db8	-3.9930248
119	0xc068a125	-3.6348355
120	0xc01a8e23	-2.4149253
121	0x3ed4de78	0.4157598
122	0x3eafa2b5	0.34303823
123	0xbe8a4e14	-0.27012694
124	0xbf7d32e6	-0.9890579
125	0x3df57528	0.119852364
126	0xbf871430	-1.0553036
127	0xbd2ae6f1	-0.04172415
128	0xc09bd23a	-4.8694124
129	0xc0940dc7	-4.626682
130	0xc0393509	-2.893862
131	0xbfc27e48	-1.5194788
132	0xbed7d30e	-0.4215321
133	0x3f6e7c44	0.93158364
134	0x3f25ef2a	0.6481806
135	0x3f3cdad9	0.73771435
136	0xbff5a979	-1.9192344
137	0xbe606fed	-0.21917696
138	0x3f21a02c	0.6313503
139	0xbfa9c188	-1.3262186
140	0xbe2bae23	-0.16765647
141	0x3ec496b8	0.3839624
142	0xc0692a79	-3.6432173
143	0xc025a237	-2.5880258
144	0xc033c073	-2.8086212
145	0x3f1f1842	0.6214639
146	0xbd08c3e5	-0.033389945
147	0xc0394ea8	-2.8954258
148	0xc070cfb0	-3.7626762
149	0x3f5757d5	0.84118396
150	0x3fae7df3	1.3632187
151	0xbfd2daa6	-1.6472976
152	0xbfce1624	-1.6100507
153	0x3d8d6848	0.06904656
154	0xbf7bbbb4	-0.9833329
155	0x3f287aab	0.65812176
156	0x3e21d9e0	0.15805769
157	0xbf40545a	-0.7512871
158	0xc0250797	-2.5785882
159	0xbf04f269	-0.5193239
160	0xbf63f0c4	-0.89039254
161	0xbee80009	-0.45312527
162	0xbeb244da	-0.34818155
163	0xbf243a98	-0.64151907
164	0xbf59709d	-0.8493746
165	0xbf080555	-0.53133136
166	0xbf064120	-0.5244312
167	0xbf72eebf	-0.9489555
168	0x3f2f66bd	0.6851614
169	0xbf2c5101	-0.673111
170	0x3f161e00	0.58639526
171	0xc06ba124	-3.6817102
172	0x3c862d6f	0.016379086
173	0xbe4c984c	-0.19979972
174	0xc0719fa5	-3.775369
175	0xc0502b94	-3.2526598
176	0xc0a87cf5	-5.2652535
177	0xc01f29d1	-2.4869273
178	0xbd94a84b	-0.07258662
179	0xbcadf331	-0.021234127
180	0xbdfe3c61	-0.1241386
181	0x3ee6a662	0.45048815
182	0xbf2d87fe	-0.6778563
183	0xbec49c19	-0.38400343
184	0xbfd4741a	-1.6597931
185	0xc0275bcc	-2.6149778
186	0xbe9507fd	-0.29107657
187	0xbe5f5b9a	-0.21812287
188	0x3f1cc1c5	0.6123317
189	0xbe040d9d	-0.12895818
190	0xc05f301b	-3.4873111
191	0xbfdb0eeb	-1.7113928
192	0xc086a4bb	-4.2076087
193	0x3f9776f3	1.1833175
194	0xbe637ef2	-0.22216395
195	0xbf0b9758	-0.5452781
196	0xbfb16df9	-1.3861686
197	0x3f4534e5	0.77033836
198	0xbf80a7a0	-1.0051155
199	0xc05d1dd8	-3.4549465
200	0xbccd15a7	-0.025034739
201	0xbe079de6	-0.13243827
202	0xbf0c55c9	-0.548184
203	0xbeb833a9	-0.35976914
204	0x3ea50e19	0.32237318
205	0xc0045a75	-2.068021
206	0xc0505e84	-3.2557688
207	0x3e1eed94	0.15520316
208	0xbf32d348	-0.6985364
209	0xbd450756	-0.0481027
210	0xbee5b8d5	-0.44867578
211	0x3ea54ae6	0.32283705
212	0xbe9e1b98	-0.30880427
213	0xc054b375	-3.3234532
214	0xbf139e8e	-0.5766381
215	0x3f35ab99	0.7096496
216	0xbe3b9fa4	-0.18322617
217	0xbf629147	-0.88502926
218	0x3f09d096	0.538339
219	0x3d52f59c	0.051503763
220	0xbf375d5b	-0.71626824
221	0xbf03389d	-0.5125826
222	0xc0689f39	-3.6347182
223	0xbf05cf9d	-0.5226992
224	0xc02b95a9	-2.6810095
225	0x3d82c452	0.063851014
226	0xbfaf6716	-1.3703334
227	0xc00e8091	-2.226597
228	0x3ee550bf	0.44788167
229	0x3f44148d	0.7659386
230	0xc02ca9d6	-2.697866
231	0xc02251ef	-2.5362508
232	0x3effb589	0.49943188
233	0xbc922679	-0.01784061
234	0x3ecf52e4	0.40492928
235	0x3f263c7c	0.6493604
236	0xbfbba8ad	-1.4660851
237	0xc017c718	-2.3715267
238	0xc00362b7	-2.0529
239	0xbeaf318e	-0.34217495
240	0xc073fa1e	-3.812141
241	0x3f46cbe0	0.7765484
242	0x3d751ff8	0.05984494
243	0xc05d86f1	-3.4613612
244	0xbdc5f04e	-0.09664975
245	0x3f050f09	0.51976067
246	0xc04d7a87	-3.2106035
247	0x3ef2b56b	0.47404036
248	0x3efe5f19	0.4968193
249	0x3f2320d7	0.63721985
250	0xbe551dc6	-0.20812139
251	0x3d48fc1c	0.049068555
252	0xbf1b6afb	-0.60710114
253	0xbf814bb1	-1.0101224
254	0xbf6e4f5f	-0.9308986
255	0xbfcddb7b	-1.6082605

l3.bias f4 [40]
0	0x3e684400	0.2268219
1	0x3e64dcf1	0.22349907
2	0x3e057e24	0.130364
3	0xbf164199	-0.58693844
4	0x3c46d04a	0.012134621
5	0x3e898fed	0.2686762
6	0xbe398e60	-0.18120718
7	0x3f0f6519	0.5601364
8	0xbdc89d6a	-0.09795649
9	0xbed22060	-0.41040325
10	0x3eed929d	0.4640092
11	0x3d6a946b	0.05727045
12	0xbdd35dd1	-0.103206284
13	0x3e784f0d	0.24248905
14	0xbe9cc96a	-0.30622417
15	0xbea06927	-0.31330225
16	0xbdd14fb6	-0.10220282
17	0xbe800087	-0.25000402
18	0x3e89e87c	0.26935184
19	0xbf0c5ff3	-0.54833907
20	0xbf16c1d9	-0.5888954
21	0xbe0f934a	-0.1402103
22	0xbf529241	-0.82254416
23	0xbdf7015d	-0.12060807
24	0x3e989e47	0.29808256
25	0xbf0a5c56	-0.54047143
26	0xbf8f849a	-1.1212342
27	0x3de8b50f	0.11362659
28	0xbed65d39	-0.41867998
29	0xbeb7ad85	-0.35874572
30	0x3c139dd0	0.009009793
31	0xbea813e0	-0.32827663
32	0xbecd202e	-0.40063614
33	0xbe863f1a	-0.26220018
34	0x3f01886e	0.505988
35	0x3e80a75c	0.25127685
36	0x3ea71329	0.32631806
37	0xbe616b71	-0.22013642
38	0x3f17025d	0.5898798
39	0xbed63459	-0.41836813
